runs/flappybird1.pt (torch, 32824 bytes, 4 tensors)

fc1.weight f4 [512, 12]
0	0xbe12f69d	-0.14351888
1	0x3d93de68	0.07220155
2	0xbe845427	-0.25845453
3	0xbe86b1cc	-0.26307523
4	0xbe000d13	-0.12504987
5	0xbe8f8dc1	-0.28037837
6	0xbe12e372	-0.14344576
7	0xba9ee700	-0.0012123287
8	0x3d31d2f0	0.043414056
9	0xbdd8db9e	-0.10588764
10	0x3e85b9f6	0.2611844
11	0x3e03b0e4	0.12860447
12	0x3f652218	0.8950515
13	0x3fca4118	1.5801115
14	0x3f014da5	0.505091
15	0x3f3961bf	0.72414774
16	0x3f421bf7	0.7582392
17	0xbf35f6a4	-0.7107947
18	0xbed25803	-0.41082773
19	0x3e83ad9b	0.25718388
20	0xbce42baa	-0.027852852
21	0xc04490a9	-3.0713294
22	0xbe2561ae	-0.16150543
23	0x3d8cd514	0.06876579
24	0x3e83f25e	0.2577085
25	0x3e99d15e	0.30042547
26	0x3e66c39c	0.22535557
27	0xbe68fe20	-0.22753191
28	0x3ecf2dad	0.40464535
29	0xbd60c760	-0.05487764
30	0xbe8a83c1	-0.27053645
31	0x3ed132fc	0.4085921
32	0x3e03eb14	0.12882644
33	0x3e5162b2	0.20447806
34	0x3e5c2d32	0.21501616
35	0x3e0029c0	0.12515926
36	0xbf83f30e	-1.030855
37	0xbdbe1dec	-0.09283051
38	0x3dcb9b33	0.09941711
39	0xbed55f1a	-0.4167412
40	0x3c9168ab	0.017750105
41	0x3e1656f2	0.14681605
42	0x3ee407a8	0.4453709
43	0xbe10995d	-0.14121003
44	0xbdb0e117	-0.086366825
45	0x3d81400d	0.06311045
46	0x3dab6202	0.08368303
47	0x3e71b43b	0.23603909
48	0x3ee0e4cc	0.43924558
49	0x3d8ae361	0.0678165
50	0x3eb00c75	0.34384504
51	0xbe9b6705	-0.30352035
52	0xbcd1b75a	-0.025600124
53	0xbd24c14d	-0.04022341
54	0x3db210f7	0.08694642
55	0x3da5093c	0.08058402
56	0xbe3469a4	-0.17618424
57	0xbf58eaa1	-0.84733015
58	0xbedecfb7	-0.4351785
59	0x3ddee4b5	0.10883466
60	0xbf225a3f	-0.63418955
61	0x3f43129f	0.7620029
62	0x3d900f8d	0.07034216
63	0xbf095d3e	-0.536579
64	0xbd3e6273	-0.046480607
65	0xbd226c53	-0.039654087
66	0x3e324704	0.17409903
67	0x3e8cc885	0.27496734
68	0x3dda3ecb	0.10656508
69	0xbf5e54c6	-0.86848104
70	0xbe1f2027	-0.15539609
71	0x3e7a102b	0.2442023
72	0x3e93b8a5	0.2885181
73	0xbe15df2f	-0.14635919
74	0xbe472464	-0.19447476
75	0xbedc6bd9	-0.4305103
76	0xbf01702c	-0.50561786
77	0xbdb4bb8d	-0.08824835
78	0xbe449c95	-0.19200356
79	0xbe6b1931	-0.22958829
80	0xbe8c8a0c	-0.2744907
81	0x3f93c817	1.1545438
82	0xbdb1b551	-0.086771615
83	0xbdb06572	-0.08613099
84	0xbdae41e2	-0.0850866
85	0x3b82bb2b	0.0039895973
86	0xbe4ba06e	-0.19885418
87	0x3ed90eca	0.42394096
88	0xbf3ca89d	-0.73694783
89	0x3f1db212	0.6159984
90	0x3d5ec4fd	0.05438708
91	0xbed2be93	-0.41161022
92	0xbe912136	-0.2834565
93	0xbe5ebe8d	-0.21752377
94	0x3ea464e0	0.32108212
95	0xbd0a5878	-0.033775777
96	0x3dc314c1	0.09525443
97	0x3f85b7e2	1.0446742
98	0x3e9e3909	0.3090289
99	0x3ea6c48a	0.32571822
100	0x3eae7cb2	0.3407951
101	0xbf0aeae4	-0.54264665
102	0x3e46205a	0.19348279
103	0xbf693ebb	-0.91111344
104	0x3df16d2f	0.11788403
105	0xbfc6db7a	-1.5535729
106	0xbe0800eb	-0.132816
107	0xbdb0ad6c	-0.086268276
108	0xbba32200	-0.0049784184
109	0xbe2755eb	-0.16341369
110	0xbe0b5fb4	-0.13610727
111	0xbdefaf90	-0.11703408
112	0x3d570688	0.052496463
113	0x3e72ac68	0.2369858
114	0xbe8975c6	-0.26847667
115	0xbd93e2a4	-0.07220963
116	0xbe937015	-0.2879645
117	0x3dfd33b4	0.12363377
118	0xbe6b10c2	-0.22955611
119	0xbe7e5c34	-0.2483986
120	0xbe583967	-0.21115647
121	0x3e15f0a6	0.14642581
122	0xbe7bb2a9	-0.24579872
123	0x3e9ec907	0.31012747
124	0x3e6adadc	0.2293505
125	0x3d934b86	0.07192139
126	0x3e0c2d5c	0.13689178
127	0xbe78054b	-0.24220769
128	0x3e62b0f3	0.22137813
129	0xbf01d940	-0.5072212
130	0xbc0bfa5b	-0.008543576
131	0xbc6cf776	-0.014463296
132	0xbf0c4a2f	-0.54800695
133	0x3ef94663	0.48686513
134	0x3f1e7bdd	0.6190775
135	0xbe3163b1	-0.17323186
136	0xbe7fd1ed	-0.24982424
137	0xbec4a141	-0.38404277
138	0x3e636ba5	0.22209032
139	0xbeca1c52	-0.39474732
140	0xbdc51123	-0.09622409
141	0xbfb2e411	-1.397585
142	0xbe26c153	-0.16284685
143	0xbbfd3b60	-0.0077280253
144	0xbf09ec20	-0.53875923
145	0x3f0b964a	0.545262
146	0x3e44c9b3	0.19217567
147	0x3e459064	0.19293362
148	0x3eb5671e	0.35430235
149	0xbdb50b81	-0.08840085
150	0x3d44a42d	0.048008133
151	0xbe5e4d86	-0.2170926
152	0x3cd5f5d5	0.026118198
153	0xbfc551d9	-1.5415603
154	0xbf041268	-0.51590586
155	0xbd4c9e23	-0.0499555
156	0xbe57f0e5	-0.21087988
157	0x3dc22b2c	0.09480891
158	0x3de5942f	0.112099044
159	0x3e6d9935	0.23202975
160	0x3dccac8d	0.09993849
161	0xbcf9a2e2	-0.030473176
162	0x3d736b98	0.05942878
163	0x3ebcc86b	0.36871657
164	0x3d011e88	0.031523257
165	0xbebbc066	-0.36670226
166	0xbdb385de	-0.087657675
167	0xbe22a2ca	-0.15882412
168	0xbf8d0ea2	-1.102009
169	0xbe817e6c	-0.25291765
170	0xbe12ea8e	-0.14347288
171	0xbe7f2328	-0.24915755
172	0xbd16513b	-0.03669856
173	0xbe510614	-0.20412475
174	0xbe7827fb	-0.24234001
175	0xbedfbf43	-0.4370061
176	0x3e7e2d44	0.24821955
177	0x3edd0c52	0.43173462
178	0xbe9021d0	-0.28150797
179	0x3eac9078	0.3370397
180	0x3d8b1574	0.06791201
181	0xbe1d0c7d	-0.15336795
182	0xbe0dcc58	-0.13847482
183	0xbde9edcf	-0.114223115
184	0xbc97f260	-0.01854819
185	0x3ca53ed9	0.02017157
186	0xbe685a76	-0.22690758
187	0xbe8dd24a	-0.276995
188	0xbc8e85c3	-0.017397767
189	0x3e6f76a9	0.23385109
190	0x3d970281	0.073735245
191	0x3e7de0e0	0.24792814
192	0xbe821c87	-0.2541239
193	0x3daac309	0.08337981
194	0x3d927617	0.0715143
195	0xbe8332dc	-0.2562474
196	0xbeae265f	-0.3401365
197	0x3ed1e8e8	0.40998006
198	0x3b717ced	0.0036848143
199	0x3ca20aa0	0.019780457
200	0x3e1b6820	0.1517644
201	0xbf547ef6	-0.83006227
202	0x3e3dff3f	0.185544
203	0xbdf9e9ee	-0.12202822
204	0x3e986991	0.2976804
205	0x3eb62fd8	0.35583377
206	0x3c2add7f	0.010428785
207	0xbe9e3669	-0.30900887
208	0x3e15b6ea	0.14620557
209	0xbe6c47ab	-0.23074214
210	0x3e53ba77	0.206766
211	0x3e722e09	0.23650374
212	0x3d2b59c5	0.041833658
213	0x3f17328b	0.590615
214	0x3d1eb4c8	0.038746625
215	0xbe9da93e	-0.30793184
216	0xbe2e6ea8	-0.170344
217	0xbdf6d6bf	-0.12052678
218	0xbe0f835f	-0.14014958
219	0x3e0aeafc	0.13566202
220	0xbea01398	-0.3126495
221	0x3f024cea	0.5089861
222	0x3d8b5fc5	0.06805376
223	0x3ebeebb6	0.37289208
224	0xbd2c4648	-0.042059213
225	0x3dd8e508	0.10590559
226	0xbdc02d2e	-0.09383617
227	0xbe9d6957	-0.3074443
228	0xbe9173d9	-0.28408697
229	0xbe1d11e2	-0.15338853
230	0x3db68308	0.08911711
231	0x3e24d00e	0.16094992
232	0xbd347270	-0.04405445
233	0xbe4081fa	-0.18799582
234	0xbe3ae694	-0.18252021
235	0xbe277d47	-0.16356383
236	0x3e15e2e6	0.14637336
237	0x3e49ef26	0.19720134
238	0x3d8cd018	0.06875628
239	0x3cde8700	0.027163982
240	0xbe8495c2	-0.25895506
241	0x3e6d923e	0.23200318
242	0x3e23ce24	0.15996605
243	0xbe79ebeb	-0.24406402
244	0xbdceeb3d	-0.10103462
245	0xbe7a64b5	-0.24452479
246	0x3df28d93	0.118434094
247	0x3dbb2c41	0.091393
248	0x3e1e0281	0.15430643
249	0xbe5608a4	-0.20901734
250	0xbe1a8d43	-0.1509295
251	0x3ec54f22	0.38536936
252	0xbea39828	-0.31952024
253	0x3f44dcc5	0.7689937
254	0x3e90c79a	0.28277284
255	0xbca6b34e	-0.020349171

fc1.bias f4 [512]
0	0x3d635610	0.055501997
1	0xbe81d3e9	-0.25356987
2	0xbe311aca	-0.17295375
3	0x3e232a19	0.15934028
4	0x3e7856cb	0.24251859
5	0x3e405885	0.18783768
6	0xbb9a578b	-0.004710143
7	0xbdd4f1fe	-0.10397719
8	0xbeabe62a	-0.3357404
9	0xbd910f34	-0.07082978
10	0x3d85948d	0.065224744
11	0x3e2960ad	0.16540785
12	0xbe366e35	-0.17815478
13	0xbdf4a2ba	-0.119451
14	0x3e39bce6	0.18138465
15	0x3e21936d	0.15778895
16	0xbe91bbb0	-0.28463507
17	0x3db2bdec	0.08727631
18	0xbd5e2277	-0.054232087
19	0xbe83c58d	-0.25736657
20	0x3e188b1c	0.14896816
21	0x3ebef910	0.37299395
22	0xbe401898	-0.18759382
23	0xbdc83eba	-0.09777589
24	0xbea128e8	-0.31476521
25	0x3da836e1	0.08213592
26	0x3b40fce3	0.0029447607
27	0xbddcc9aa	-0.10780652
28	0x3eaff6e4	0.3436805
29	0x3d183bf0	0.037166536
30	0x3ddef558	0.10886639
31	0x3dcd8f65	0.10037116
32	0xbe220e4a	-0.15825763
33	0xbe01b98f	-0.12668441
34	0xbd3ce478	-0.046116322
35	0xbd589fcc	-0.05288677
36	0x3db3dc04	0.08782199
37	0xbe715911	-0.23569132
38	0xbc84927e	-0.016183134
39	0xbe90096b	-0.28132185
40	0x3e618f56	0.22027335
41	0xbda6326f	-0.08115088
42	0xbdcbafad	-0.09945617
43	0x3e8a54c2	0.2701779
44	0xbe0e77fe	-0.13912961
45	0xbdfc2628	-0.12311965
46	0x3dd45d60	0.10369372
47	0x3ed4d40c	0.4156803
48	0xbcd8ee9e	-0.026480969
49	0xbe847495	-0.25870195
50	0xbe747c83	-0.23875622
51	0xbd784ecd	-0.060622025
52	0x3f02bca7	0.5106911
53	0x3dcaf4fd	0.09910009
54	0xbe2131dd	-0.15741678
55	0xbe269441	-0.16267492
56	0xbc84c718	-0.016208217
57	0x3cc561a7	0.024094416
58	0xbe77125d	-0.24128099
59	0xbe378b94	-0.17924339
60	0xbe75e441	-0.24012853
61	0x3ea7115e	0.32630438
62	0xbe050920	-0.12991762
63	0x3e1fe923	0.15616278
64	0xbda12b3d	-0.07869575
65	0x3e0198b9	0.12655915
66	0x3e44eabf	0.19230174
67	0xbe189504	-0.14900595
68	0x3e93532b	0.2877439
69	0xbd4fd3e2	-0.050739177
70	0xbd2f7383	-0.04283477
71	0x3d149fc4	0.036285177
72	0x3e60940a	0.21931472
73	0xbe9b9124	-0.3038417
74	0xbc816ed6	-0.015799921
75	0xbe7a4c86	-0.24443254
76	0x3eab1fa6	0.33422583
77	0xbe07bb84	-0.13255125
78	0xbe8c8627	-0.274461
79	0xbe8c6de3	-0.27427587
80	0x3e1bd8d0	0.15219426
81	0xbd16ce08	-0.03681758
82	0xbda16e32	-0.07882346
83	0x3e9d1369	0.3067887
84	0x3e8a4a01	0.27009585
85	0xbe73ab95	-0.23795922
86	0x3e98970d	0.29802743
87	0xbbfe7a65	-0.0077660554
88	0x3eb138d1	0.3461366
89	0xbdba4366	-0.090948865
90	0x3d6c266b	0.057653826
91	0x3e168f48	0.14703095
92	0xbe0be082	-0.13659862
93	0xbdb06410	-0.086128354
94	0x3e632562	0.22182229
95	0x3e6a4459	0.22877635
96	0xbd400d60	-0.046887755
97	0x3d37ced5	0.044874985
98	0xbd05ddd6	-0.032682262
99	0xbd04f9a1	-0.032464627
100	0xbdaf289f	-0.0855267
101	0x3e094cf9	0.13408269
102	0xbd52f8fe	-0.05150699
103	0xbd6a06e1	-0.057135466
104	0x3d0c0a03	0.034189235
105	0x3c86660c	0.016406082
106	0xbeb41e85	-0.35179535
107	0xbe2f4957	-0.1711782
108	0xbda3cdfa	-0.07998271
109	0x3c722a25	0.014780556
110	0x3dc34913	0.09535422
111	0x3d451738	0.048117846
112	0xbe280170	-0.16406798
113	0xbd9cacc9	-0.07650144
114	0xbdbe9db2	-0.09307422
115	0x3df56f5c	0.11984131
116	0x3d41d957	0.047326412
117	0xbc6e1748	-0.014531918
118	0xbe99f6dd	-0.30071154
119	0x3e1b98ab	0.15194957
120	0x3e180c9e	0.14848563
121	0x3cc80f5c	0.024421386
122	0xbe17196c	-0.14755791
123	0x3db7d190	0.08975518
124	0x3e94d301	0.29067233
125	0xbda6f402	-0.081520095
126	0xbe64d9af	-0.22348665
127	0x3c2373a5	0.009976302
128	0xbe962504	-0.29325116
129	0x3e07830d	0.13233586
130	0x3d6c9150	0.05775577
131	0x3d33dd90	0.04391247
132	0xbecec752	-0.40386444
133	0xbe345bd6	-0.17613158
134	0x3e9ee3a8	0.31033063
135	0xbe2368c2	-0.1595793
136	0xbe1d8912	-0.1538432
137	0xbe3442e3	-0.1760364
138	0x3e03c669	0.12868656
139	0xbda41fb6	-0.08013861
140	0xbed07eda	-0.4072178
141	0x3aae19c4	0.0013282825
142	0xbd19ee5d	-0.037580837
143	0xbe9961e5	-0.299575
144	0x3e3e54b3	0.18586998
145	0xbe8b6ef7	-0.27233097
146	0xbe370f93	-0.17877035
147	0x3db3858b	0.08765706
148	0xbe96dc7d	-0.29465094
149	0xbeb5bf56	-0.3549754
150	0x3e030583	0.12795071
151	0xbe2615d3	-0.16219263
152	0xbb6645b4	-0.003513676
153	0xbe5f4fc7	-0.21807776
154	0xbe9bec78	-0.3045385
155	0x3d6024e6	0.05472269
156	0xbe8b67bf	-0.2722759
157	0xbea0a19c	-0.31373298
158	0x3e87210f	0.2639241
159	0xbf0a94a4	-0.5413306
160	0xbd065f50	-0.03280574
161	0x3ea06c21	0.31332496
162	0xbe16df94	-0.14733726
163	0xbe4618de	-0.19345424
164	0x3e2739f1	0.16330697
165	0x3e77f0af	0.24212907
166	0xbc7127f1	-0.014718995
167	0xbe9241d7	-0.28565857
168	0x3dfad69d	0.122479655
169	0x3de75970	0.11296356
170	0x3e92e3de	0.28689474
171	0xbe1e4f48	-0.15459931
172	0xbd4f3fa4	-0.0505978
173	0xbe19bcd2	-0.15013435
174	0x3e78582b	0.24252383
175	0xbd364822	-0.044502385
176	0xbde3424b	-0.11096629
177	0xbdaf1d55	-0.085505165
178	0xbe288442	-0.16456702
179	0x3d4a850c	0.04944329
180	0x3d60f335	0.05491944
181	0x3e08dc2f	0.13365243
182	0xbe91dcc4	-0.28488743
183	0xbdda2490	-0.10651505
184	0xbe76ee9d	-0.24114461
185	0xbd58fa0f	-0.05297285
186	0x3dd79fe0	0.105285406
187	0x3e818ff2	0.25305134
188	0xbde25e39	-0.11053128
189	0x3e884a45	0.26619163
190	0x3e7ed462	0.24885705
191	0xbe9f8812	-0.311585
192	0x3d2325e3	0.039831053
193	0x3e39c592	0.18141773
194	0xbe3813f7	-0.17976366
195	0xbc2a57b2	-0.010396885
196	0xbe44de2c	-0.19225377
197	0xbe7e04ba	-0.2480649
198	0x3c823c06	0.015897762
199	0xbe82ba14	-0.2553259
200	0x3e4c29fb	0.1993789
201	0xbe76aca4	-0.24089295
202	0xbe168f75	-0.14703162
203	0x3e38f0a3	0.18060546
204	0xbeabb080	-0.33533096
205	0x3e8a40c9	0.27002552
206	0xbee549bc	-0.44782817
207	0xb954cb41	-0.00020293613
208	0xbc4722a0	-0.012154251
209	0x3c136669	0.008996584
210	0xbe3b2147	-0.18274413
211	0xbe18aebd	-0.14910407
212	0x3e00f4b0	0.12593341
213	0xbdb76789	-0.08955295
214	0x3d2be3d5	0.041965324
215	0xbdcf1bfc	-0.101127595
216	0xbddaf48e	-0.10691176
217	0x3e1d171e	0.1534085
218	0xbdf97df7	-0.12182229
219	0x3c812315	0.015763799
220	0x3da3abb8	0.07991737
221	0x3e54c974	0.20779973
222	0xbeb9084b	-0.3613914
223	0xbe359c3a	-0.17735377
224	0xbe3838fc	-0.17990488
225	0xbe3153cf	-0.17317127
226	0x3ef9b913	0.48774013
227	0x3e7bef28	0.2460295
228	0x3d367861	0.044548396
229	0xbe4ebc89	-0.20189108
230	0xbe325d9a	-0.17418519
231	0x3ca772da	0.020440508
232	0x3c422a74	0.011850942
233	0xbe77f8ac	-0.24215955
234	0xbea0d2c8	-0.31410813
235	0xbd04a87b	-0.032387238
236	0x3d28d493	0.04121835
237	0x3d58827b	0.05285881
238	0x3eb5be3e	0.35496706
239	0xbd61be4e	-0.05511313
240	0xbca64070	-0.020294398
241	0xbe879b8d	-0.26485863
242	0xbc7cbbc0	-0.015425622
243	0xbe4746fe	-0.19460675
244	0x3c5f8fbf	0.013645112
245	0x3d68c642	0.0568297
246	0xbe0419bb	-0.1290044
247	0xbe6204ff	-0.22072218
248	0xbb7ba6b8	-0.0038398933
249	0xbd956a56	-0.072956726
250	0x3dbd94b7	0.09256881
251	0x3e92eaff	0.28694913
252	0xbdb8a302	-0.09015466
253	0xbea0d62d	-0.31413403
254	0xbe5b9466	-0.21443328
255	0xbe058351	-0.13038374

output.weight f4 [2, 512]
0	0x3b37e740	0.002806142
1	0x40d715e9	6.7214246
2	0xbcd67fda	-0.026184011
3	0x3f38a9f1	0.7213431
4	0xbebe5559	-0.3717449
5	0xbf618071	-0.8808661
6	0x3e93aea7	0.28844187
7	0xbf1a2ff7	-0.6022944
8	0xc050c4c6	-3.26201
9	0xbcc0f302	-0.023553375
10	0x3dee2553	0.11628213
11	0x40006cf0	2.006649
12	0xc01964ae	-2.39677
13	0x3c053446	0.008130139
14	0x3fb11eaa	1.3837483
15	0xbaddd603	-0.0016924742
16	0xbedc433a	-0.4302004
17	0xbe7fd7e4	-0.249847
18	0xbeff5093	-0.4986616
19	0x3c243bd8	0.0100240335
20	0x3de3aeda	0.11117335
21	0xbd016bf1	-0.03159708
22	0x3caf3d56	0.021391552
23	0xbfc64419	-1.5489532
24	0xbe61b669	-0.2204224
25	0xbdd9ee12	-0.106411114
26	0x3e0d3297	0.1378883
27	0x3c5c5e00	0.013450146
28	0xbf25aa8b	-0.6471335
29	0x3c0af530	0.008481309
30	0xbee7036e	-0.45119804
31	0xbe71abe6	-0.2360073
32	0xc04a5e6d	-3.1620133
33	0xbc0d7290	-0.008633271
34	0xbf4fda3d	-0.8119238
35	0xbc3576d0	-0.01107569
36	0xbd253b55	-0.040339787
37	0xbd196bac	-0.0374562
38	0x3dd81dcb	0.105525576
39	0xbd284f07	-0.04109099
40	0x3ea753e5	0.32681194
41	0xbd068f23	-0.03285135
42	0x3fa157f4	1.2604966
43	0x3f5289a9	0.822413
44	0x3cf46d06	0.029837143
45	0x3ba51888	0.0050383247
46	0xbfde5210	-1.7368793
47	0x3fcb01c2	1.5859911
48	0xbf78b4d2	-0.9715091
49	0xbd309fca	-0.043121137
50	0xbd2d3d31	-0.042294685
51	0xbf5b3ef4	-0.85642934
52	0x3f35fddf	0.710905
53	0x3f7c4b0e	0.98552024
54	0x3f5987ff	0.8497314
55	0xbf63a01d	-0.8891619
56	0x3df93b2e	0.12169491
57	0x3e564380	0.20924187
58	0xc00800d6	-2.125051
59	0xba539c40	-0.00080722943
60	0xbd00ce42	-0.031446703
61	0xbe7fabfb	-0.24967949
62	0x3d041fff	0.032257076
63	0xbcbe6c0d	-0.023244882
64	0xbf889a2f	-1.0672053
65	0xbea6c8b2	-0.32574993
66	0xbd2f457a	-0.042790867
67	0xbf6cfe5e	-0.92575634
68	0xbfd46481	-1.6593171
69	0xbe5e6622	-0.21718648
70	0xc07250d5	-3.7861836
71	0x3e22f6d7	0.15914474
72	0x3e68e082	0.22741893
73	0x3e962276	0.29323167
74	0xbfacc8b2	-1.3498747
75	0x3fa36e44	1.2768025
76	0x3e440b1f	0.19144867
77	0xbd6644c7	-0.056217935
78	0x3fb35eda	1.4013321
79	0x3c918fb3	0.017768716
80	0xbe84f8af	-0.2597098
81	0xbb0437f0	-0.0020174943
82	0xbe2ef7fb	-0.17086785
83	0x3e53f936	0.20700535
84	0x3e01f97f	0.12692831
85	0x3d2de7f7	0.042457547
86	0xbf2f6e16	-0.6852735
87	0xbefec37e	-0.49758524
88	0xbf2e251a	-0.6802536
89	0xbead904a	-0.33899146
90	0xbedecc79	-0.43515375
91	0xbe82b697	-0.2552993
92	0xbd0774ea	-0.033070482
93	0xbfba4c9e	-1.4554632
94	0x3e25a14c	0.16174811
95	0x3e04aafe	0.12955853
96	0x3f6f0832	0.9337188
97	0xbdc01652	-0.09379257
98	0x3e16f588	0.147421
99	0x3f4b131c	0.79326034
100	0x3c84fd8c	0.016234182
101	0x3e80aafd	0.25130454
102	0xbf03f181	-0.5154038
103	0x3ed2bf18	0.41161418
104	0x3f0d115a	0.551046
105	0xbfbc5bcf	-1.4715518
106	0xbe1c62e2	-0.15272096
107	0xbd0a99d0	-0.033838093
108	0xbc774032	-0.015090989
109	0xbe63916e	-0.22223446
110	0xc0508a87	-3.258455
111	0x3c3c7cf0	0.011504397
112	0xbccf22e3	-0.02528519
113	0xbfe52cd4	-1.7904305
114	0xbc9936ee	-0.01870295
115	0x3f0fd03f	0.56177133
116	0xbf4e1072	-0.80493844
117	0xbf41631d	-0.7554186
118	0x3d76f61b	0.0602933
119	0xbe16837e	-0.14698598
120	0xbeb73604	-0.35783398
121	0x4014c046	2.3242354
122	0xbd1ffe67	-0.039060976
123	0x3c99f636	0.01879416
124	0xbf7e7ef2	-0.99412453
125	0x3ed8c9ac	0.42341363
126	0xbce6b65b	-0.028163126
127	0x3da46033	0.08026161
128	0xbf4c44e0	-0.79792595
129	0x409a3828	4.819355
130	0x3ecd2b0c	0.40071905
131	0x3e0e6951	0.13907363
132	0xbf751544	-0.95735574
133	0xbedc0702	-0.42974097
134	0x3e4c9423	0.19978385
135	0xbf7eaa96	-0.99479043
136	0xbcc162dd	-0.023606712
137	0x3b9342cc	0.004494047
138	0x3d2f5838	0.04280874
139	0xbd17e85a	-0.037086822
140	0x3eb8ded6	0.3610751
141	0x3f14fee0	0.5820141
142	0xbff9c332	-1.9512694
143	0xbdce3e2d	-0.10070453
144	0x3df0ac07	0.117515616
145	0x3d92d24c	0.07169017
146	0x3ca15202	0.019692425
147	0x3f190a3e	0.59781253
148	0x3df79ec7	0.12090831
149	0x3f0ca9bd	0.549465
150	0x3c5d2ca6	0.013499415
151	0xbbd55808	-0.0065107383
152	0x3caf44be	0.021395084
153	0x3e864160	0.26221752
154	0xbf11aca7	-0.5690407
155	0x3a18d57f	0.0005830153
156	0xbf723adf	-0.9462108
157	0xbd853a2b	-0.06505235
158	0xbefc23ca	-0.49246055
159	0x3ef5f0e0	0.48035336
160	0xbc985f0c	-0.01860001
161	0xbf1f0752	-0.62120545
162	0xbaf97060	-0.0019030683
163	0x3a2024c0	0.0006108992
164	0xbd77a181	-0.060456757
165	0x3f154bd1	0.5831881
166	0xbe8713e4	-0.26382363
167	0xbd0bc786	-0.034125827
168	0x3ec117e5	0.37713543
169	0xbe90932c	-0.28237283
170	0x3d9b5ca8	0.07586032
171	0xbe66bd1f	-0.22533081
172	0xbcfa8800	-0.030582428
173	0x3e80bdfe	0.25144953
174	0x3e14ec54	0.14543277
175	0xbe6ed64f	-0.2332394
176	0x3e4c44d1	0.19948126
177	0xbe1574fc	-0.14595407
178	0xbd5e7883	-0.054314148
179	0x3e2b8dd5	0.16753323
180	0xbcdb535a	-0.026773144
181	0xbef04116	-0.46924657
182	0xbc3a18f8	-0.011358492
183	0x3bbed000	0.0058231354
184	0x3d2203a5	0.039554257
185	0xbf3335fc	-0.7000425
186	0xbd32d593	-0.04366071
187	0xbe8c22ae	-0.27370209
188	0xc0489258	-3.133932
189	0x3e58bf11	0.21166636
190	0xbe1b8d00	-0.15190506
191	0xbfa40dc8	-1.2816706
192	0x3d46e69d	0.048559774
193	0x3dea72e6	0.114476964
194	0x3f23e735	0.6402467
195	0x3dc9462d	0.09827838
196	0x3ddd02cf	0.10791551
197	0x3d2a01b9	0.04150555
198	0x3d16a5be	0.036779158
199	0xbf38d465	-0.7219909
200	0xbc4dcb2a	-0.012560645
201	0x3c215d84	0.009848956
202	0x3b9789fc	0.0046246033
203	0xbf75eb15	-0.9606183
204	0x3f06b8b0	0.5262556
205	0x3e86dc87	0.26340124
206	0x3ed80db4	0.42197955
207	0x3ddffa16	0.10936372
208	0x3d0578d5	0.032585938
209	0x3efb1c87	0.49045202
210	0xbcdcef68	-0.026969627
211	0xbc9784d1	-0.018495949
212	0xbf8405f2	-1.0314314
213	0xc00ebd3a	-2.2302995
214	0xc018b8d0	-2.38628
215	0xbc60bc92	-0.013716834
216	0xc0428946	-3.0396285
217	0x3d887dba	0.066646054
218	0x3d92b5e5	0.071636
219	0xbd70e5f5	-0.058813054
220	0xbf3bf9dd	-0.73428136
221	0xbc1997a4	-0.009374533
222	0x3f2fe116	0.6870283
223	0x3e70097b	0.23441117
224	0x3ed2c89b	0.41168675
225	0x3d2d0d6c	0.04224913
226	0x3e9527f6	0.2913205
227	0x3e7e1e0d	0.24816151
228	0x3e59c898	0.21267927
229	0xbd07b8b4	-0.03313513
230	0xc08fe3bc	-4.4965496
231	0xbe084c37	-0.13310324
232	0xbf8438c3	-1.0329822
233	0x3c8d0aba	0.017217029
234	0xbf12d851	-0.5736132
235	0xbcf58966	-0.029972743
236	0x3efcd12a	0.4937833
237	0x3eaf455a	0.342326
238	0x3e80cf80	0.2515831
239	0x3fd9b8a5	1.7009474
240	0xbe93e3c7	-0.28884718
241	0xbcb84a9b	-0.022496512
242	0x3cc2a6f6	0.023761254
243	0xbf45cb35	-0.77263194
244	0x3f65cbf9	0.8976436
245	0x3dfc97b6	0.12333624
246	0xbe5ec328	-0.21754134
247	0x3f37708c	0.7165611
248	0x3c43133b	0.01190644
249	0x3c1c06cd	0.009523106
250	0xc0182624	-2.377328
251	0x3e717483	0.23579602
252	0xc02f3ff2	-2.738278
253	0xc006d212	-2.1065717
254	0x3e4ea2e2	0.20179322
255	0x3ce4026e	0.02783319

output.bias f4 [2]
0	0x3d43c409	0.047794376
1	0x3beed935	0.0072890767
